boston_집값_예측/converted_model.tflite (tflite, 26724 bytes, 5 tensors)

sequential_1/dense_4/BiasAdd/ReadVariableOp f4 [62]
000000 ff ec fe bc 7b c1 a6 3e ee 1b 4e bd 80 d5 94 3d
       -0.031118868 0.3256949 -0.050319605 0.072672844
000010 c9 06 04 bc 0b 81 ce bc 00 00 00 00 55 b7 6b 3e
       -0.008058258 -0.025208017 0.0 0.23019154
000020 6d fe ac 3d cb 52 8f bc 5f b9 ee bc f2 15 ad 3d
       0.08446965 -0.017495533 -0.029141126 0.08451451
000030 78 6d ac 3d 00 00 00 00 00 00 00 00 41 a3 b2 3d
       0.08419317 0.0 0.0 0.087225445
000040 b8 7a c2 3d 00 00 00 00 a3 a7 db 3d c0 c5 c3 3d
       0.09496063 0.0 0.107253335 0.09559202
000050 32 c9 c4 bb 2c 69 aa 3d 0d 3b ab 3d 00 00 00 00
       -0.0060054297 0.08320841 0.083608724 0.0
000060 ac a0 aa 3d 89 45 b1 3d 00 00 00 00 5b a6 b5 3d
       0.08331427 0.08655841 0.0 0.088696204
000070 10 fa a2 bc 9f 47 b4 3d 39 ad d1 bb dc 79 b2 3d
       -0.01989463 0.08802723 -0.0063988236 0.08714649
000080 55 e2 c6 bc 95 d3 ac 3d 32 37 e1 bc 00 00 00 00
       -0.024277845 0.084387936 -0.02749214 0.0
000090 4f 2d 5a bc 00 00 00 00 5f 5c 00 bd 00 00 00 00
       -0.0133164665 0.0 -0.031338092 0.0
0000a0 90 ec b4 3d 3e da 1e bd e4 27 e3 bc 5a b0 28 3e
       0.08834183 -0.03878235 -0.027728982 0.16473523
0000b0 ea 5b d0 3d 18 a8 b3 3d 8e 82 d3 bc cb 28 af 3d
       0.10173781 0.08772296 -0.02581909 0.085527025
0000c0 87 89 36 bd 71 e2 d3 3d 81 82 38 bc 9a 38 a8 3d
       -0.04456475 0.10345925 -0.011261583 0.08213921
0000d0 4f 72 a9 3d e2 86 b5 3d eb a4 d4 3d 48 2f d1 bc
       0.08273756 0.088636175 0.10383018 -0.02553524
0000e0 00 00 00 00 00 00 00 00 81 3c 27 bc d8 e1 42 bd
       0.0 0.0 -0.010207296 -0.047578663
0000f0 6d 17 b4 3d 1f b9 bd 3d
       0.087935306 0.09263825

sequential_1/dense_3/BiasAdd/ReadVariableOp f4 [62]
000000 00 00 00 00 00 00 00 00 b8 4f 99 3d bd 73 df 3d
       0.0 0.0 0.07485908 0.10910747
000010 64 37 05 3e 00 00 00 00 ab 65 4d 3d 00 00 00 00
       0.13009411 0.0 0.050145786 0.0
000020 00 00 00 00 00 00 00 00 47 26 b6 bb b1 28 cd 3d
       0.0 0.0 -0.0055587622 0.10017527
000030 0f 4f 47 3b 67 2d 33 bc 4c 9b dc 3d 32 39 b4 3d
       0.0030412113 -0.010936118 0.10771808 0.08799972
000040 bc c0 b0 3d cc 26 b6 bb 00 00 00 00 37 be 8f 3d
       0.08630511 -0.005558824 0.0 0.070187025
000050 a3 cc 43 3e 00 00 00 00 1c 14 e7 3d 00 00 00 00
       0.19121031 0.0 0.112831324 0.0
000060 45 b1 32 3d 00 00 00 00 00 00 00 00 13 9a 8f 3d
       0.04362609 0.0 0.0 0.07011809
000070 57 b5 c3 3d a6 65 dd 3d 00 00 00 00 0b 46 6f bd
       0.09556072 0.108104035 0.0 -0.058416408
000080 00 00 00 00 21 9c 5a 3d 00 00 00 00 e0 e0 9d 3d
       0.0 0.053371552 0.0 0.07708907
000090 5e 6a c7 3d 0b 3b 73 3d 4b 61 ae 3d fc 4e 3c 3d
       0.09737085 0.05938248 0.08514651 0.045973763
0000a0 39 bf db 3d 41 34 fb 3d f6 98 e8 3d 1d 88 c5 3d
       0.10729832 0.12265826 0.113573 0.09645102
0000b0 00 00 00 00 b1 f4 b5 3d 00 00 00 00 00 00 00 00
       0.0 0.08884562 0.0 0.0
0000c0 1d 38 a2 3d ad ff d0 3d 29 a9 25 3d 00 00 00 00
       0.07920859 0.10205016 0.040444527 0.0
0000d0 da 0f de 3b 3e 6a cb 3d 36 78 36 3d c3 ac 8c 3d
       0.006776792 0.099323735 0.044548236 0.06868889
0000e0 9e 2d a6 3d f8 2c 00 3d c1 5b b3 3d a2 29 c4 3d
       0.081141695 0.031292886 0.08757735 0.09578253
0000f0 00 00 00 00 00 00 00 00
       0.0 0.0

sequential_1/dense_3/Tensordot/MatMul1 f4 [62, 13]
000000 6e e6 5f be 30 fb af 3c 38 ed c9 3d 80 80 6b 3b
       -0.21865246 0.02148208 0.09859699 0.0035934746
000010 c0 67 53 bc c6 29 8d be c6 29 0b be 92 55 74 3e
       -0.012903154 -0.27570933 -0.13590154 0.23860767
000020 92 47 a4 bd c0 7d e2 bc ac b8 d4 3d aa f1 29 be
       -0.080214635 -0.027647853 0.10386786 -0.16596094
000030 40 3f 89 3b ba 9f 22 3e 74 39 21 be 4b 42 2c be
       0.004188448 0.15881243 -0.15744573 -0.16822164
000040 a0 5c fd 3c b8 58 d0 3d f8 2c fa 3d 00 9b 27 3c
       0.030927956 0.10173172 0.12215608 0.010229826
000050 f8 1c 2c 3d 85 12 8a be 10 0f fc bc 64 07 40 be
       0.042019814 -0.26967254 -0.030768901 -0.1875282
000060 bd a3 3a be 38 8b 17 3d dd c1 b6 bf 67 b6 66 3c
       -0.18226524 0.036998004 -1.4277912 0.014081574
000070 11 e2 37 be 7c 80 7b 40 8e 34 2a 3e 72 06 0b 40
       -0.17957331 3.929717 0.1662161 2.1722684
000080 b3 96 0c bd e2 59 1d c0 b2 54 2a 3f cb 62 3c bc
       -0.034323405 -2.458611 0.66535485 -0.011498163
000090 19 b1 8f bf 48 0c bf 3c 2f 1b 26 c0 d1 8e 96 bf
       -1.1225921 0.023321286 -2.5954092 -1.1762334
0000a0 4d d2 72 bc cf ae 73 be 92 bb 73 40 a0 01 17 3f
       -0.014820647 -0.23797153 3.8083234 0.58986855
0000b0 b6 83 d5 3f 0e bc aa be 41 b8 0b c0 0f 46 44 3f
       1.668082 -0.333466 -2.183121 0.766694
0000c0 e3 ff 3a be 4c 43 96 bf 5f e3 99 3e a3 31 d1 bf
       -0.18261676 -1.1739287 0.30056283 -1.6343273
0000d0 54 b2 be bf d5 ee e4 3e 84 6d 21 be 17 5f 7f 40
       -1.4898171 0.44713464 -0.15764433 3.9901788
0000e0 38 37 a0 3e c9 79 fe 3f 88 2a d1 be d5 67 0e c0
       0.3129213 1.9880916 -0.4085276 -2.2250874
0000f0 6a eb 91 3f 47 1b 6e be 48 cf 7f bf f9 53 90 3e
       1.1399968 -0.23252593 -0.9992566 0.28189066
000100 1e 0c 0f c0 1a 39 6a be 3f b5 06 be c6 37 7e 3e
       -2.2351146 -0.22873345 -0.13155077 0.24825963
000110 27 3a 8c be e6 33 55 3e 53 d2 84 3e 06 ed b9 bd
       -0.27388117 0.20820579 0.25941715 -0.09078412
000120 00 44 78 be cc b8 53 3e f8 d9 68 be 20 64 f3 3c
       -0.2424469 0.20675963 -0.22739398 0.02971083
000130 fc ee c0 3d 00 30 57 ba c2 f3 05 bf 6c e0 0e bd
       0.09420583 -0.00082087517 -0.5232507 -0.034881994
000140 e8 c5 95 3e d2 f9 69 40 67 05 60 3f ad fa db 3f
       0.29252553 3.6558728 0.87508243 1.7185875
000150 21 82 1e 3d a7 80 ce bf 3e c5 92 3e 07 9f 96 3e
       0.03869832 -1.6133012 0.2866611 0.29418203
000160 07 b4 43 bf 02 4f 60 be cf a5 e7 bf 8a c0 65 3e
       -0.76446575 -0.21905139 -1.8097476 0.22436729
000170 4f 86 15 be f6 09 59 3e 4e b4 08 3e a0 e7 34 3e
       -0.14602016 0.21195206 0.13350031 0.17666483
000180 24 c8 62 be 84 9f 83 bd 00 8a 3b 3a d7 47 30 be
       -0.2214666 -0.064269096 0.00071540475 -0.17214905
000190 95 eb 17 be 98 29 8b 3d 64 a4 8f be 56 83 0c be
       -0.14835961 0.06795043 -0.28055108 -0.13721976
0001a0 d8 ae b2 3d c9 ce 6d be 72 6d 72 3e 70 2b 00 3e
       0.08724755 -0.23223414 0.23674563 0.1251657
0001b0 b8 65 c2 bd fd d2 10 be 74 24 84 3d 01 18 83 be
       -0.094920576 -0.14142986 0.064522654 -0.2560425
0001c0 e0 f5 a3 3c b5 10 63 be f0 e9 76 be f8 6b 43 be
       0.020014703 -0.22174342 -0.24112678 -0.19084156
0001d0 ec 6c 55 3e 60 d6 5c bc 1a f8 6f 3e 90 a4 39 3e
       0.20842332 -0.013478845 0.23434487 0.18129182
0001e0 7f 94 6a be 4a 8f 57 3e 69 1b 8b be fb a4 20 be
       -0.2290821 0.21050754 -0.2716935 -0.15687935
0001f0 98 10 d1 3d b8 0e ef 3d a0 fb 7a bc c8 e8 21 be
       0.10208243 0.11672729 -0.015318781 -0.15811455
000200 6d 53 26 be c1 1b 0f be 20 fb 2a 3e 90 5f 41 3d
       -0.16242762 -0.13975431 0.16697359 0.047210276
000210 44 6b 89 3e ba 02 e6 bd 5c a8 5c 3e a4 ed 8d 3e
       0.2683965 -0.11230989 0.21548599 0.27720368
000220 7e 9c 43 be 80 0e 4e 3e eb fb 05 bd 62 0a 83 be
       -0.19102666 0.20122719 -0.03271095 -0.2559386
000230 ed 01 34 3e af 0f c6 3d e6 fa 87 bd 08 55 23 bf
       0.1757886 0.0967096 -0.06639652 -0.6380162
000240 ea 15 87 3d 57 21 8a 3e 62 14 51 40 0a b1 d3 3e
       0.06595977 0.2697856 3.266869 0.41346008
000250 86 bf 00 40 75 44 6b bd 78 1f bc bf 92 34 ea 3e
       2.0116897 -0.057438333 -1.4697104 0.45743233
000260 ff 41 93 3e f5 6f ff be 4e eb 9b 3e 8b 91 a2 bf
       0.2876129 -0.49890104 0.3045296 -1.2700666
000270 e5 b6 d5 be 3d 06 a5 3d d5 b2 d1 bd 6d 7a 77 40
       -0.417411 0.080578305 -0.10239188 3.8668473
000280 e9 38 4d 3f c6 1c fb 3f 54 80 b3 3e 25 41 02 c0
       0.80164963 1.9618156 0.35058844 -2.035226
000290 68 6d d1 3e 0b e4 56 3e 99 8a 4f bf 78 54 c6 bd
       0.40903783 0.20985429 -0.8107086 -0.0968408
0002a0 1b 7b aa bf 67 c5 00 3e c4 95 a3 bd bc 86 cf bd
       -1.3318819 0.12575303 -0.0798755 -0.101331204
0002b0 19 64 19 be 3b 7e e6 3d b1 df 06 bc d4 7f 00 be
       -0.1497959 0.11254545 -0.008232043 -0.12548763
0002c0 93 5b 26 3e b0 9f 58 3e a7 e1 6f be 22 56 29 3e
       0.1624587 0.21154666 -0.23425923 0.16536763
0002d0 c2 47 e4 3d c3 d0 37 3e 8c cb a5 be 4e 9a ac 3e
       0.11146499 0.1795073 -0.32381856 0.33711475
0002e0 dd 46 9d 3e a7 50 69 40 67 f1 03 3f 9c ff e4 3f
       0.30718127 3.6455476 0.51540226 1.7890506
0002f0 36 d2 cf 3e 47 83 e0 bf 1a 79 5e 3e 97 dc 04 3e
       0.40590066 -1.7540063 0.21725884 0.12974773
000300 9f b3 01 bf e9 3f 6a 3d d0 c0 63 bf 6f 6a 75 bf
       -0.50664705 0.057189856 -0.88966084 -0.9586553
000310 5e e7 cc 3e ae 1b 8f be 42 80 59 40 bf 8d ee 3e
       0.4002027 -0.27950805 3.3984532 0.4659252
000320 a9 5f da 3f a8 44 bb 3e 8a 4f ce bf 59 95 90 3e
       1.7060443 0.36575818 -1.6118023 0.28238943
000330 33 d5 c8 3d 0d b0 2d bf e2 1d 57 3e 70 e1 ae bf
       0.098062895 -0.6784676 0.21007493 -1.3662548
000340 55 2f 44 bf ea c9 62 3e 6b 8a a6 bd dd 13 63 40
       -0.7663472 0.22147337 -0.0813187 3.5480874
000350 34 46 46 3f aa b6 d8 3f d8 4c 30 be af b6 d1 bf
       0.7745087 1.6930745 -0.17216814 -1.6383876
000360 93 46 fe 3e 83 01 65 3e b0 7f 4c bf 04 0b 52 3e
       0.4966322 0.22363858 -0.79882336 0.20512015
000370 92 f3 7b bf 8a 31 2d be 48 d4 25 3e 9a 48 0f be
       -0.98418534 -0.16913429 0.1619426 -0.13992539
000380 38 4e 59 3e 24 0e 8a be 3f 49 ba 3d 78 c0 ef 3d
       0.21221244 -0.26963913 0.09096002 0.117066324
000390 a0 31 75 be d5 57 74 be de 6a 45 bc 85 54 6a bd
       -0.23944712 -0.2386163 -0.012049405 -0.05720951
0003a0 b4 92 33 bd 36 50 c2 bc 4e 68 19 be 40 dd 6a 3c
       -0.04384108 -0.023719888 -0.14981195 0.014334977
0003b0 76 08 6e 3e dc 29 8d 3d f9 19 8e 3e b4 3b f5 bd
       0.23245415 0.0689275 0.2775419 -0.11974278
0003c0 52 f4 b7 bd 1a 84 46 be fe e5 87 be 08 3e f9 bd
       -0.08982147 -0.1938633 -0.26542658 -0.12170035
0003d0 22 66 45 3e b2 6c 86 bd 20 df 89 3d 0d 1d 38 bf
       0.19277242 -0.06563701 0.06732011 -0.7191933
0003e0 d2 fd fe 3d 06 74 ae bd 61 b4 78 40 3d 70 04 3f
       0.12450756 -0.085182235 3.8860095 0.5173376
0003f0 e7 b7 00 40 84 8d 6e bd e8 da 03 c0 59 8a c7 3e
       2.0112245 -0.05824043 -2.060236 0.38972738

sequential_1/dense_4/Tensordot/MatMul f4 [62, 62]
000000 e8 fc 55 3d 2c 13 00 bd 42 96 e0 bd c7 6a 01 3e
       0.052243143 -0.031268284 -0.109661594 0.12638389
000010 d5 d5 18 3e 78 ec 87 3d 46 42 21 bd 24 f9 da 3d
       0.1492532 0.066369 -0.039369844 0.10692051
000020 48 59 55 3d 80 85 81 bb ce 1d 94 bd c5 ca 3d be
       0.0520871 -0.003952682 -0.07232247 -0.18534382
000030 e1 ab 5f be 30 be d1 3d b1 c7 3f bd 81 f6 46 be
       -0.2184291 0.102413535 -0.0468213 -0.19429971
000040 b6 d7 60 be 9c 5d f8 3d de ec 5c 3e 08 90 34 be
       -0.21957287 0.121272296 0.21574733 -0.17633069
000050 f8 27 ba 3d c0 d8 3b 3e eb a3 2a 3e 76 a0 25 be
       0.09089655 0.18344402 0.16664092 -0.16174492
000060 be d6 15 be 26 b8 34 be bc 3b 7b bd 10 56 eb 3d
       -0.14632699 -0.17648372 -0.061336264 0.114910245
000070 09 f9 7e be 2b 3d 34 be e2 b7 30 be 6e 36 4d bc
       -0.24899687 -0.17601459 -0.17257646 -0.012525184
000080 e0 0b 20 3e 9b fe 45 be f8 ab cd bc 14 24 e0 3d
       0.1562953 -0.19335406 -0.025106415 0.10944381
000090 70 20 00 3d 28 f5 9e 3c 9a 6e 6b be 06 42 8a bc
       0.031280935 0.019404009 -0.2299141 -0.016877186
0000a0 30 cc 7e be 0c b7 4e 3e 94 32 c7 3d d4 4c 13 3e
       -0.24882579 0.20187014 0.09726444 0.14384776
0000b0 2c b1 20 be 51 cc 55 be 24 31 25 be 2b 24 17 be
       -0.15692586 -0.20878722 -0.16132027 -0.1475989
0000c0 78 56 25 be 76 fd 36 3d ff 5a e9 bd 98 d1 e9 bd
       -0.16146266 0.044675313 -0.11394309 -0.1141693
0000d0 97 51 58 be 73 2b 84 bc 7d b4 aa 3d e2 b6 22 3c
       -0.21124874 -0.016134 0.08335207 0.009931298
0000e0 79 90 47 be e0 51 24 3d 22 67 40 be 99 96 51 bd
       -0.19488706 0.040117145 -0.18789342 -0.05116901
0000f0 68 13 80 3d 64 03 ed bd 48 1d 84 3d 1a 36 48 3e
       0.062537014 -0.11572912 0.064508975 0.19551888
000100 79 7a 8f be 24 d9 12 3d 8b ad 0b 3e b8 57 c0 3d
       -0.28023127 0.035851613 0.1364042 0.09391731
000110 93 79 4d bd ec e1 2a 3e 08 77 b2 3c e8 8c 27 3e
       -0.05016477 0.16687745 0.021785274 0.16362345
000120 24 fd 57 bd f6 fc 32 3d be 5f 62 be 9c ee 47 bd
       -0.052731648 0.043698274 -0.22106835 -0.04881154
000130 6b 6e 84 3e 2a b9 84 be bf 10 b4 be 70 c0 45 3e
       0.25865492 -0.2592252 -0.35169026 0.1931169
000140 0b 91 03 be 07 13 02 bf b7 50 63 3f b8 44 df 3d
       -0.12848298 -0.50810283 0.88795036 0.10901779
000150 7c ab 76 3d e2 13 06 be 39 58 6d bf 38 73 5e be
       0.060222134 -0.13093522 -0.9271274 -0.2172364
000160 4a 1c 29 3e b0 f7 e1 be a6 9f fd 3e 4e f7 ff bd
       0.16514698 -0.44134283 0.49535865 -0.124983415
000170 b0 95 5c 3e d5 5c 1a bf 30 c8 44 3e 6c eb 12 3e
       0.21541476 -0.602979 0.1921699 0.14347619
000180 f8 19 0c be 44 4d 6a be 4c 20 bf 3e ed 2b bb be
       -0.13681781 -0.22881037 0.37329328 -0.3655695
000190 b7 4f 75 be be b7 4b bf fa 11 0d 3e 9f 08 ca bd
       -0.2395619 -0.79577243 0.13776389 -0.098649256
0001a0 4f 8c 90 3e 97 eb 04 bf e8 5c 94 3c 8b 76 20 be
       0.28232047 -0.5192198 0.018110707 -0.1567022
0001b0 34 41 43 3e 00 67 19 bb b5 10 da bd a8 9c bf be
       0.19067842 -0.002340734 -0.10647718 -0.37424207
0001c0 74 f5 5b be f6 82 52 3e b8 72 8a be f0 74 c9 bd
       -0.21480352 0.2055777 -0.27040648 -0.09836757
0001d0 c9 0a b7 be 9f d4 15 bf 77 9d 88 be b2 ce 82 be
       -0.35750416 -0.5852756 -0.26682636 -0.2554832
0001e0 f7 4f cf be 94 d4 34 be 08 0b 57 be 70 6c 31 3e
       -0.40490696 -0.17659217 -0.21000302 0.17326522
0001f0 5c 62 6e bd 0c ab 4b bd 3b fb 9f bd f0 ce 22 3c
       -0.05819927 -0.04972367 -0.0781159 0.009937033
000200 48 43 96 3d 58 aa 13 3d 33 8c 5d be c6 92 4d 3e
       0.07337052 0.036051124 -0.21635513 0.20075521
000210 84 0e 8d 3d 40 58 7f bc 40 69 e3 3d ca d7 b1 bc
       0.06887534 -0.015585005 0.11104059 -0.021709342
000220 69 09 2b be ea cf 3e 3e 52 19 df bd 4a 0d 22 be
       -0.16702808 0.18634 -0.10893501 -0.15825382
000230 0e d3 39 be e0 90 95 3c 08 60 63 bd ef 69 a5 bd
       -0.18146917 0.018257558 -0.055511504 -0.08076846
000240 8e 29 15 3e b8 f3 18 bd c6 f4 d5 bd 88 34 d2 3c
       0.14566633 -0.037341803 -0.104470775 0.025659814
000250 92 17 65 be 58 47 3a 3e 1c 05 ac 3d 3d ef 5f 3e
       -0.22372273 0.18191278 0.08399412 0.21868606
000260 18 b1 d1 3d 8a 9a da 3d 88 32 ec bc e7 cb 58 3d
       0.10238856 0.10674007 -0.028832689 0.05292883
000270 4c 0c ff 3d a6 f7 33 be 30 67 e3 3d 47 bc 1b be
       0.12453517 -0.17574939 0.11103666 -0.15208541
000280 f0 80 07 3d 73 3f ed 3d bc 54 b4 3c a3 e3 e7 bd
       0.03308195 0.115843676 0.02201306 -0.11322715
000290 1a 9f 19 3e 35 ca 95 3c 39 7a a2 3d f3 2b 3e 3d
       0.15002099 0.018284896 0.07933468 0.046428632
0002a0 2a 41 11 3e 53 83 10 be 41 cc 29 be a4 b7 56 bd
       0.14185014 -0.14112596 -0.16581823 -0.052421227
0002b0 fe 88 17 be 93 39 93 bd 54 54 5c be a4 1b 0b 3e
       -0.14798352 -0.07188716 -0.21516544 0.13584763
0002c0 76 e6 27 3e c1 eb e4 bd 38 04 0d bd c3 93 f8 3c
       0.16396508 -0.11177779 -0.03442785 0.030343896
0002d0 06 de 4e be c4 c4 4e be 57 f2 ad bd cb dc 24 be
       -0.20201883 -0.20192248 -0.08493488 -0.16099851
0002e0 80 ff 48 3b ce fd 09 be c4 9c 5b bd bf 9d 47 be
       0.0030669868 -0.13475725 -0.0536163 -0.19493769
0002f0 86 c8 87 3f 92 b2 32 3f 0b 87 6d 3f a2 f5 5b 3e
       1.060807 0.69803727 0.92784184 0.2148042
000300 ff 17 f1 3e e0 3c f8 bc 40 17 30 3e 08 36 c8 3c
       0.4708862 -0.030302465 0.17196369 0.024439827
000310 b2 7e 08 3d f2 79 98 3e 2b 49 06 3f 9a 71 9b bd
       0.03332395 0.29780537 0.52455395 -0.07590027
000320 43 d9 9a 3e 89 3a 16 3e c5 7b 8e 3d 36 01 1a 3e
       0.30243883 0.14670767 0.06957201 0.15039524
000330 f0 91 7c 3c a7 31 c6 3e 58 86 91 bf c4 2a 9c 3d
       0.015415654 0.38709757 -1.1369123 0.076253444
000340 40 8f 5b 3e 84 1d e1 3d bd a4 cd 3e ba cc 12 3e
       0.21441364 0.10991958 0.40164748 0.1433591
000350 44 c7 a3 3d 6f ca ae 3f fc 4a ff 3e 1b bc 0e 3e
       0.07996991 1.3655528 0.49861896 0.13938944
000360 90 e4 fc 3d 77 0f ac 3e 10 ba 44 bd 36 ad 81 3f
       0.12348282 0.3360555 -0.048029006 1.0130985
000370 26 f8 11 3e 40 43 aa 3e c5 d1 34 3f 4f c1 22 3f
       0.14254817 0.33254433 0.7063258 0.63576216
000380 79 a9 e6 3d 74 26 2e 3f 54 8d b3 3e 9a 9d 3d 3f
       0.11262793 0.68027425 0.35068762 0.74068606
000390 e1 09 a1 3e c8 92 fe 3d e2 7e 09 3e b4 b5 1c 3e
       0.3145285 0.1243034 0.13427308 0.15303689
0003a0 84 e9 13 3e 10 f6 29 3e 47 87 0a 3f 0a e3 8d 3e
       0.14444548 0.16597772 0.54112667 0.2771228
0003b0 5f c7 56 3f 80 b4 ff 3c 64 c9 7e 3f 3d 58 26 3e
       0.83897966 0.031213999 0.9952605 0.16244598
0003c0 fa 6e c0 3e 8d 9e 34 3d a1 e3 45 3f e3 bd 90 3f
       0.37584668 0.04409652 0.7730046 1.1307949
0003d0 e0 4b d0 3e 07 72 97 3e 0a 72 15 be 54 47 10 bd
       0.40682888 0.29579183 -0.14594284 -0.035224274
0003e0 7e 39 29 3e b8 aa a8 3c 06 ff f8 3d 55 27 5a be
       0.16525838 0.020589218 0.12158017 -0.21304066
0003f0 5e 55 b0 bd 2a e9 af bd 22 0a 05 3e dc 36 22 be
       -0.086100325 -0.085893944 0.12992147 -0.1584124

sequential_1/dense_5/Tensordot/MatMul f4 [1, 62]
000000 a7 a5 6f be 96 a5 00 40 4b 43 1f be 86 a7 08 3f
       -0.23403035 2.0101066 -0.15553014 0.5338062
000010 22 64 8e be ef 57 bb bd 2b 22 8d be 01 e1 97 bf
       -0.2781077 -0.091476314 -0.2756513 -1.1865541
000020 a1 3e 13 3f 3f 50 17 be a8 62 58 be b2 ad 1b 3f
       0.5751744 -0.14776705 -0.21131384 0.60811913
000030 16 bf 3e 3f 4e f2 53 be 6a 3c 59 3e 3d 5c 36 3f
       0.74510324 -0.206979 0.21214452 0.71234494
000040 a3 78 20 3f 58 f5 ed bd 48 d9 f3 3e 86 20 0a 3f
       0.6268408 -0.11619061 0.4762671 0.53955877
000050 f1 fa 67 be fa a1 27 3f f1 13 29 3f f7 81 8e 3e
       -0.2265432 0.6548153 0.66046053 0.2783353
000060 89 2f 26 3f 6b ad 16 3f 64 6a bf bd d2 a9 2b 3f
       0.6491628 0.58858365 -0.09346464 0.67056
000070 36 98 6d bd 19 7e 20 3f 1c 24 ae bd 54 b3 1c 3f
       -0.058006488 0.6269241 -0.08502981 0.61211133
000080 b6 e1 82 be 24 04 32 3f b2 2d 13 bc ac 26 73 bd
       -0.2556283 0.6953757 -0.008983063 -0.059363052
000090 dd ef 43 be 16 81 a1 bd 35 4d 27 bd c1 93 28 be
       -0.1913447 -0.07885949 -0.040845115 -0.16462614
0000a0 bd bf 2b 3f a6 c6 75 be 31 3b 89 bc e5 3d 7c bf
       0.67089444 -0.2400156 -0.016751857 -0.98531944
0000b0 8f 1e 21 3f 64 cb 48 3f 57 ba 7d be e6 be 4e 3f
       0.62937254 0.7843535 -0.24778114 0.8076004
0000c0 79 95 3f bd ef 4b f2 3e 82 74 6a be e5 10 45 3f
       -0.046773408 0.47323558 -0.22896007 0.76978904
0000d0 ae f4 25 3f 6a 62 1c 3f c4 2d 05 3f 6e 28 90 be
       0.64826477 0.6108767 0.5202296 -0.28155845
0000e0 92 cd 97 be 72 36 80 be 32 82 a8 bc 82 b2 a8 bd
       -0.29649025 -0.25041538 -0.020569894 -0.08237173
0000f0 8c db 32 3f 60 75 0c 3f
       0.6986625 0.548666
